…
layer 9 sparsity 0.000000
layer 10 sparsity 0.000000
layer 11 sparsity 0.000000
layer 12 sparsity 0.000000
layer 13 sparsity 0.000000
layer 14 sparsity 0.000000
layer 15 sparsity 0.000000
layer 16 sparsity 0.000000
layer 17 sparsity 0.000000
layer 18 sparsity 0.000000
layer 19 sparsity 0.000000
layer 20 sparsity 0.000000
layer 21 sparsity 0.000000
layer 22 sparsity 0.000000
layer 23 sparsity 0.000000
sparsity sanity check 0.0000
******************************
all params: 0.9 B	 layer params: 0.9 B	 extra params: 0.0 B
decoder_time:59.24582481384277ms
all:{} 0.24998116493225098
VAR(
  drop_path_rate=0.1
  (word_embed): Linear(in_features=32, out_features=1536, bias=True)
  (class_emb): Embedding(1001, 1536)
  (lvl_embed): Embedding(10, 1536)
  (shared_ada_lin): Identity()
  (blocks): ModuleList(
    (0): AdaLNSelfAttn(
      shared_aln=False
      (drop_path): Identity()
      (attn): SelfAttention(
        using_flash=False, using_xform=False, attn_l2_norm=True
        (mat_qkv): Linear(in_features=1536, out_features=3648, bias=False)
        (proj): Linear(in_features=1216, out_features=1536, bias=True)
        (proj_drop): Identity()
      )
      (ffn): FFN(
        fused_mlp_func=False
        (fc1): Linear(in_features=1536, out_features=4915, bias=True)
        (act): GELU(approximate='tanh')
        (fc2): Linear(in_features=4915, out_features=1536, bias=True)
        (drop): Identity()
      )
      (ln_wo_grad): LayerNorm((1536,), eps=1e-06, elementwise_affine=False)
      (ada_lin): Sequential(
        (0): SiLU()
        (1): Linear(in_features=1536, out_features=9216, bias=True)
      )
    )
    (1-23): 23 x AdaLNSelfAttn(
      shared_aln=False
      (drop_path): DropPath((drop_prob=...))
      (attn): SelfAttention(
        using_flash=False, using_xform=False, attn_l2_norm=True
        (mat_qkv): Linear(in_features=1536, out_features=3648, bias=False)
        (proj): Linear(in_features=1216, out_features=1536, bias=True)
        (proj_drop): Identity()
      )
      (ffn): FFN(
        fused_mlp_func=False
        (fc1): Linear(in_features=1536, out_features=4915, bias=True)
        (act): GELU(approximate='tanh')
        (fc2): Linear(in_features=4915, out_features=1536, bias=True)
        (drop): Identity()
      )
      (ln_wo_grad): LayerNorm((1536,), eps=1e-06, elementwise_affine=False)
      (ada_lin): Sequential(
        (0): SiLU()
        (1): Linear(in_features=1536, out_features=9216, bias=True)
      )
    )
  )
  (head_nm): AdaLNBeforeHead(
    (ln_wo_grad): LayerNorm((1536,), eps=1e-06, elementwise_affine=False)
    (ada_lin): Sequential(
      (0): SiLU()
      (1): Linear(in_features=1536, out_features=3072, bias=True)
    )
  )
  (head): Linear(in_features=1536, out_features=4096, bias=True)
)
decoder_time:5.613565444946289ms
decoder_time:5.397796630859375ms
torch.Size([1, 3, 256, 256])
  Params: 895.56 M => 895.56 M
   MACs: 569.54 G => 569.54 G
[dist initialize] env variable "RANK" is not set, use cuda:0 as the device
[07-29 17:47:55] (IDtest/utils/arg_util.py, line 175)=> [tf32] [precis] torch.get_float32_matmul_precision(): high
[07-29 17:47:55] (IDtest/utils/arg_util.py, line 176)=> [tf32] [ conv ] torch.backends.cudnn.allow_tf32: True
…
