…
layer 9 sparsity 0.004845
layer 10 sparsity 0.004845
layer 11 sparsity 0.004845
layer 12 sparsity 0.004845
layer 13 sparsity 0.004845
layer 14 sparsity 0.004845
layer 15 sparsity 0.004845
layer 16 sparsity 0.004845
layer 17 sparsity 0.004845
layer 18 sparsity 0.004845
layer 19 sparsity 0.004845
layer 20 sparsity 0.004845
layer 21 sparsity 0.004845
layer 22 sparsity 0.004845
layer 23 sparsity 0.004845
sparsity sanity check 0.0048
******************************
all params: 0.99 B	 layer params: 0.99 B	 extra params: 0.0 B
decoder_time:56.2281608581543ms
all:{} 0.2599527835845947
VAR(
  drop_path_rate=0.1
  (word_embed): Linear(in_features=32, out_features=1536, bias=True)
  (class_emb): Embedding(1001, 1536)
  (lvl_embed): Embedding(10, 1536)
  (shared_ada_lin): Identity()
  (blocks): ModuleList(
    (0): AdaLNSelfAttn(
      shared_aln=False
      (drop_path): Identity()
      (attn): SelfAttention(
        using_flash=False, using_xform=False, attn_l2_norm=True
        (mat_qkv): Linear(in_features=1536, out_features=4608, bias=False)
        (proj): Linear(in_features=1536, out_features=1536, bias=True)
        (proj_drop): Identity()
      )
      (ffn): FFN(
        fused_mlp_func=False
        (fc1): Linear(in_features=1536, out_features=5530, bias=True)
        (act): GELU(approximate='tanh')
        (fc2): Linear(in_features=5530, out_features=1536, bias=True)
        (drop): Identity()
      )
      (ln_wo_grad): LayerNorm((1536,), eps=1e-06, elementwise_affine=False)
      (ada_lin): Sequential(
        (0): SiLU()
        (1): Linear(in_features=1536, out_features=9216, bias=True)
      )
    )
    (1-23): 23 x AdaLNSelfAttn(
      shared_aln=False
      (drop_path): DropPath((drop_prob=...))
      (attn): SelfAttention(
        using_flash=False, using_xform=False, attn_l2_norm=True
        (mat_qkv): Linear(in_features=1536, out_features=4608, bias=False)
        (proj): Linear(in_features=1536, out_features=1536, bias=True)
        (proj_drop): Identity()
      )
      (ffn): FFN(
        fused_mlp_func=False
        (fc1): Linear(in_features=1536, out_features=5530, bias=True)
        (act): GELU(approximate='tanh')
        (fc2): Linear(in_features=5530, out_features=1536, bias=True)
        (drop): Identity()
      )
      (ln_wo_grad): LayerNorm((1536,), eps=1e-06, elementwise_affine=False)
      (ada_lin): Sequential(
        (0): SiLU()
        (1): Linear(in_features=1536, out_features=9216, bias=True)
      )
    )
  )
  (head_nm): AdaLNBeforeHead(
    (ln_wo_grad): LayerNorm((1536,), eps=1e-06, elementwise_affine=False)
    (ada_lin): Sequential(
      (0): SiLU()
      (1): Linear(in_features=1536, out_features=3072, bias=True)
    )
  )
  (head): Linear(in_features=1536, out_features=4096, bias=True)
)
decoder_time:5.431413650512695ms
decoder_time:5.378007888793945ms
torch.Size([1, 3, 256, 256])
  Params: 988.12 M => 988.12 M
   MACs: 647.27 G => 647.27 G
[dist initialize] env variable "RANK" is not set, use cuda:0 as the device
[07-30 12:47:07] (IDtest/utils/arg_util.py, line 175)=> [tf32] [precis] torch.get_float32_matmul_precision(): high
[07-30 12:47:07] (IDtest/utils/arg_util.py, line 176)=> [tf32] [ conv ] torch.backends.cudnn.allow_tf32: True
…
