…
layer 1 sparsity 0.011433
layer 2 sparsity 0.011433
layer 3 sparsity 0.011433
layer 4 sparsity 0.011433
layer 5 sparsity 0.011433
layer 6 sparsity 0.011433
layer 7 sparsity 0.011433
layer 8 sparsity 0.011433
layer 9 sparsity 0.011433
layer 10 sparsity 0.011433
layer 11 sparsity 0.011433
layer 12 sparsity 0.011433
layer 13 sparsity 0.011433
layer 14 sparsity 0.011433
layer 15 sparsity 0.011433
sparsity sanity check 0.0114
******************************
all params: 0.28 B	 layer params: 0.28 B	 extra params: 0.0 B
decoder_time:59.72146987915039ms
all:{} 0.18605327606201172
VAR(
  drop_path_rate=0.0666667
  (word_embed): Linear(in_features=32, out_features=1024, bias=True)
  (class_emb): Embedding(1001, 1024)
  (lvl_embed): Embedding(10, 1024)
  (shared_ada_lin): Identity()
  (blocks): ModuleList(
    (0): AdaLNSelfAttn(
      shared_aln=False
      (drop_path): Identity()
      (attn): SelfAttention(
        using_flash=False, using_xform=False, attn_l2_norm=True
        (mat_qkv): Linear(in_features=1024, out_features=3072, bias=False)
        (proj): Linear(in_features=1024, out_features=1024, bias=True)
        (proj_drop): Identity()
      )
      (ffn): FFN(
        fused_mlp_func=False
        (fc1): Linear(in_features=1024, out_features=3277, bias=True)
        (act): GELU(approximate='tanh')
        (fc2): Linear(in_features=3277, out_features=1024, bias=True)
        (drop): Identity()
      )
      (ln_wo_grad): LayerNorm((1024,), eps=1e-06, elementwise_affine=False)
      (ada_lin): Sequential(
        (0): SiLU()
        (1): Linear(in_features=1024, out_features=6144, bias=True)
      )
    )
    (1-15): 15 x AdaLNSelfAttn(
      shared_aln=False
      (drop_path): DropPath((drop_prob=...))
      (attn): SelfAttention(
        using_flash=False, using_xform=False, attn_l2_norm=True
        (mat_qkv): Linear(in_features=1024, out_features=3072, bias=False)
        (proj): Linear(in_features=1024, out_features=1024, bias=True)
        (proj_drop): Identity()
      )
      (ffn): FFN(
        fused_mlp_func=False
        (fc1): Linear(in_features=1024, out_features=3277, bias=True)
        (act): GELU(approximate='tanh')
        (fc2): Linear(in_features=3277, out_features=1024, bias=True)
        (drop): Identity()
      )
      (ln_wo_grad): LayerNorm((1024,), eps=1e-06, elementwise_affine=False)
      (ada_lin): Sequential(
        (0): SiLU()
        (1): Linear(in_features=1024, out_features=6144, bias=True)
      )
    )
  )
  (head_nm): AdaLNBeforeHead(
    (ln_wo_grad): LayerNorm((1024,), eps=1e-06, elementwise_affine=False)
    (ada_lin): Sequential(
      (0): SiLU()
      (1): Linear(in_features=1024, out_features=2048, bias=True)
    )
  )
  (head): Linear(in_features=1024, out_features=4096, bias=True)
)
decoder_time:5.136728286743164ms
decoder_time:5.0792694091796875ms
torch.Size([1, 3, 256, 256])
  Params: 283.43 M => 283.43 M
   MACs: 176.76 G => 176.76 G
[dist initialize] env variable "RANK" is not set, use cuda:0 as the device
[07-30 22:49:38] (IDtest/utils/arg_util.py, line 175)=> [tf32] [precis] torch.get_float32_matmul_precision(): high
[07-30 22:49:38] (IDtest/utils/arg_util.py, line 176)=> [tf32] [ conv ] torch.backends.cudnn.allow_tf32: True
…
