…
[05-09 14:34:02] (train.py                , line  76)=> [dataloader] gbs=18, lbs=3, iters_train=71176, types(tr, va)=('DatasetFolder', 'DatasetFolder')
[05-09 14:34:03] (im_VAR/VAR/models/var.py, line 102)=> 
[constructor]  ==== flash_if_available=True (0/24), fused_if_available=True (fusing_add_ln=0/24, fusing_mlp=0/24) ==== 
    [VAR config ] embed_dim=1536, num_heads=24, depth=24, mlp_ratio=4.0
    [drop ratios ] drop_rate=0.0, attn_drop_rate=0.0, drop_path_rate=0.1 (tensor([… ))

[05-09 14:34:05] (im_VAR/VAR/models/var.py, line 259)=> [init_weights] VAR with init_std=0.0147314
[05-09 14:34:12] (train.py                , line 110)=> [INIT] VAR model = VAR(
  drop_path_rate=0.1
  (word_embed): Linear(in_features=32, out_features=1536, bias=True)
  (class_emb): Embedding(1001, 1536)
  (lvl_embed): Embedding(10, 1536)
  (shared_ada_lin): Identity()
  (blocks): ModuleList(
    (0): AdaLNSelfAttn(
      shared_aln=False
      (drop_path): Identity()
      (attn): SelfAttention(
        using_flash=False, using_xform=False, attn_l2_norm=True
        (mat_qkv): Linear(in_features=1536, out_features=2688, bias=False)
        (proj): Linear(in_features=896, out_features=1536, bias=True)
        (proj_drop): Identity()
      )
      (ffn): FFN(
        fused_mlp_func=False
        (fc1): Linear(in_features=1536, out_features=3686, bias=True)
        (act): GELU(approximate='tanh')
        (fc2): Linear(in_features=3686, out_features=1536, bias=True)
        (drop): Identity()
      )
      (ln_wo_grad): LayerNorm((1536,), eps=1e-06, elementwise_affine=False)
      (ada_lin): Sequential(
        (0): SiLU()
        (1): Linear(in_features=1536, out_features=9216, bias=True)
      )
    )
    (1-23): 23 x AdaLNSelfAttn(
      shared_aln=False
      (drop_path): DropPath((drop_prob=...))
      (attn): SelfAttention(
        using_flash=False, using_xform=False, attn_l2_norm=True
        (mat_qkv): Linear(in_features=1536, out_features=2688, bias=False)
        (proj): Linear(in_features=896, out_features=1536, bias=True)
        (proj_drop): Identity()
      )
      (ffn): FFN(
        fused_mlp_func=False
        (fc1): Linear(in_features=1536, out_features=3686, bias=True)
        (act): GELU(approximate='tanh')
        (fc2): Linear(in_features=3686, out_features=1536, bias=True)
        (drop): Identity()
      )
      (ln_wo_grad): LayerNorm((1536,), eps=1e-06, elementwise_affine=False)
      (ada_lin): Sequential(
        (0): SiLU()
        (1): Linear(in_features=1536, out_features=9216, bias=True)
      )
    )
  )
  (head_nm): AdaLNBeforeHead(
    (ln_wo_grad): LayerNorm((1536,), eps=1e-06, elementwise_affine=False)
    (ada_lin): Sequential(
      (0): SiLU()
      (1): Linear(in_features=1536, out_features=3072, bias=True)
    )
  )
  (head): Linear(in_features=1536, out_features=4096, bias=True)
)


[05-09 14:34:12] (train.py                , line 112)=> [INIT][#para] VAE=108.95, VAE.enc=44.11, VAE.dec=64.65, VAE.quant=0.17
[05-09 14:34:12] (train.py                , line 113)=> [INIT][#para] VAR=757.71


[05-09 14:34:12] (/VAR/utils/lr_control.py, line  99)=> [get_param_groups] param_groups = 
{ 'D': { 'lr_sc': 1.0,
         'params': "('word_embed.weight, class_emb.weight, blocks.0.attn.mat_qkv.weight, blocks.0.attn.proj.weight, blocks.0.ffn.fc1.weight, blocks.0.ffn.fc2.weight, blocks.0.ada_lin.1.weight, '\n"
…
